…
ur Mathematik, Technische Universit at Berlin, Strae des 17.",Non-OADS,2103.04211v1.pdf
"Preprint at https://arxiv.org/pdf/1405.0312.pdf  (2015)   (24) Everingham, M., Van Gool, L., Williams, C. K. I., Winn, J.",Non-OADS,2103.04213v1.pdf
Preprint at  https://arxiv.org/pdf/1906.07155.pdf (2019).,Non-OADS,2103.04213v1.pdf
https://github.com/wkentaro/labelme (2016).,Non-OADS,2103.04213v1.pdf
"15     Modules in this Faster RCNN architecture  ( More details in https://arxiv.org/pdf/1906.07155.pdf (2019) )  model .modules   <bound method Module.modules of FasterRCNN(   (backbone): ResNet (  (conv1): Conv2d(3, 64, ker nel_size=(7, 7), stride=(2, 2),  padding=(3, 3), bias=False)   (bn1): BatchNorm2d(64, eps=1e- 05, momentum=0.1, affine=True, track_running_stats=True)   (relu): ReLU(inplace=True)   (maxpool): MaxPool2d(kernel_size=3, stride=2, padding=1, dilation=1, ceil_mode=False)   (layer1): Sequential(   (0): Bottleneck(   (conv1): Conv2d(64, 64, kernel_size=(1, 1), stride=(1, 1), bias=False)   (bn1): BatchNorm2d(64, eps=1e- 05, momentum=0.1, affine=True, track_running_stats=True)   (conv2): Conv2d(64, 64, kernel_size=(3, 3), stride=(1, 1), padding=(1, 1), bias=False)   (bn2): BatchNorm2d(64, eps=1e- 05, momentum=0.1, aff ine=True, track_running_stats=True)   (conv3): Conv2d(64, 256, kernel_size=(1, 1), stride=(1, 1), bias=False)   (bn3): BatchNorm2d(256, eps=1e -05, momentum=0.1, affine=True, track_running_stats=True)   (relu): ReLU(inplace=True)   (downsample): Sequential(   (0): Co nv2d(64, 256, kernel_size=(1, 1), stride=(1, 1), bias=False)   (1): BatchNorm2d(256, eps=1e- 05, momentum=0.1, affine=True, track_running_stats=True)   )  )  (1): Bottleneck(   (conv1): Conv2d(256, 64, kernel_size=(1, 1), stride=(1, 1), bias=False)   (bn1): BatchNorm 2d(64, eps=1e- 05, momentum=0.1, affine=True, track_running_stats=True)   (conv2): Conv2d(64, 64, kernel_size=(3, 3), stride=(1, 1), padding=(1, 1), bias=False)   (bn2): BatchNorm2d(64, eps=1e- 05, momentum=0.1, affine=True, track_running_stats=True)   (conv3): Co nv2d(64, 256, kernel_size=(1, 1), stride=(1, 1), bias=False)   (bn3): BatchNorm2d(256, eps=1e -05, momentum=0.1, affine=True, track_running_stats=True)   (relu): ReLU(inplace=True)   )  (2): Bottleneck(   (conv1): Conv2d(256, 64, kernel_size=(1, 1), stride=(1, 1), bias=False)   (bn1): BatchNorm2d(64, eps=1e- 05, momentum=0.1, affine=True, track_running_stats=True)   (conv2): Conv2d(64, 64, kernel_size=(3, 3), stride=(1, 1), padding=(1, 1), bias=False)   (bn2): BatchNorm2d(64, eps=1e- 05, momentum=0.1, affine=True, track_running_stats=True)   (conv3): Conv2d(64, 256, kernel_size=(1, 1), stride=(1, 1), bias=False)   (bn3): BatchNorm2d(256, eps=1e -05, momentum=0.1, affine=True, track_running_stats=True)   (relu): ReLU(inplace=True)   )  )",OADS,2103.04213v1.pdf
"Code is available at: https://git.io/Depth Index Terms —Monocular depth estimation, 3D from single images, surface normal, virtual normal F Predicted Depth Point Cloud Surface Normal Fig.",OADS,2103.04216v5.pdf
Also available at https://arxiv.org/abs/2103.04216,Non-OADS,2103.04216v5.pdf
…
